2020-12-23 20:21:27,605 args = Namespace(batch_size=512, epochs=256, label_smooth=0.1, learning_rate=0.01, momentum=0.9, save='./models', teacher='resnet18', weight_decay=0.0, workers=16)
2020-12-23 20:21:33,213 student:
2020-12-23 20:21:33,213 reactnetv2(
  (features): Sequential(
    (0): ConvBNReLU(
      (0): Conv2d(3, 32, kernel_size=(3, 3), stride=(1, 1), padding=(1, 1), bias=False)
      (1): BatchNorm2d(32, eps=1e-05, momentum=0.1, affine=True, track_running_stats=True)
      (2): LearnableBias()
      (3): PReLU(num_parameters=1)
      (4): LearnableBias()
    )
    (1): BasicBlock(
      (conv): Sequential(
        (0): BinaryConvBNReLU(
          (0): HardBinaryConv()
          (1): BatchNorm2d(32, eps=1e-05, momentum=0.1, affine=True, track_running_stats=True)
          (2): LearnableBias()
          (3): PReLU(num_parameters=1)
          (4): LearnableBias()
        )
        (1): HardBinaryConv()
        (2): BatchNorm2d(16, eps=1e-05, momentum=0.1, affine=True, track_running_stats=True)
      )
    )
    (2): BasicBlock(
      (conv): Sequential(
        (0): BinaryConvBNReLU(
          (0): HardBinaryConv()
          (1): BatchNorm2d(96, eps=1e-05, momentum=0.1, affine=True, track_running_stats=True)
          (2): LearnableBias()
          (3): PReLU(num_parameters=1)
          (4): LearnableBias()
        )
        (1): BinaryConvBNReLU(
          (0): HardBinaryConv()
          (1): BatchNorm2d(96, eps=1e-05, momentum=0.1, affine=True, track_running_stats=True)
          (2): LearnableBias()
          (3): PReLU(num_parameters=1)
          (4): LearnableBias()
        )
        (2): HardBinaryConv()
        (3): BatchNorm2d(24, eps=1e-05, momentum=0.1, affine=True, track_running_stats=True)
      )
    )
    (3): BasicBlock(
      (conv): Sequential(
        (0): BinaryConvBNReLU(
          (0): HardBinaryConv()
          (1): BatchNorm2d(144, eps=1e-05, momentum=0.1, affine=True, track_running_stats=True)
          (2): LearnableBias()
          (3): PReLU(num_parameters=1)
          (4): LearnableBias()
        )
        (1): BinaryConvBNReLU(
          (0): HardBinaryConv()
          (1): BatchNorm2d(144, eps=1e-05, momentum=0.1, affine=True, track_running_stats=True)
          (2): LearnableBias()
          (3): PReLU(num_parameters=1)
          (4): LearnableBias()
        )
        (2): HardBinaryConv()
        (3): BatchNorm2d(24, eps=1e-05, momentum=0.1, affine=True, track_running_stats=True)
      )
    )
    (4): BasicBlock(
      (conv): Sequential(
        (0): BinaryConvBNReLU(
          (0): HardBinaryConv()
          (1): BatchNorm2d(144, eps=1e-05, momentum=0.1, affine=True, track_running_stats=True)
          (2): LearnableBias()
          (3): PReLU(num_parameters=1)
          (4): LearnableBias()
        )
        (1): BinaryConvBNReLU(
          (0): HardBinaryConv()
          (1): BatchNorm2d(144, eps=1e-05, momentum=0.1, affine=True, track_running_stats=True)
          (2): LearnableBias()
          (3): PReLU(num_parameters=1)
          (4): LearnableBias()
        )
        (2): HardBinaryConv()
        (3): BatchNorm2d(32, eps=1e-05, momentum=0.1, affine=True, track_running_stats=True)
      )
    )
    (5): BasicBlock(
      (conv): Sequential(
        (0): BinaryConvBNReLU(
          (0): HardBinaryConv()
          (1): BatchNorm2d(192, eps=1e-05, momentum=0.1, affine=True, track_running_stats=True)
          (2): LearnableBias()
          (3): PReLU(num_parameters=1)
          (4): LearnableBias()
        )
        (1): BinaryConvBNReLU(
          (0): HardBinaryConv()
          (1): BatchNorm2d(192, eps=1e-05, momentum=0.1, affine=True, track_running_stats=True)
          (2): LearnableBias()
          (3): PReLU(num_parameters=1)
          (4): LearnableBias()
        )
        (2): HardBinaryConv()
        (3): BatchNorm2d(32, eps=1e-05, momentum=0.1, affine=True, track_running_stats=True)
      )
    )
    (6): BasicBlock(
      (conv): Sequential(
        (0): BinaryConvBNReLU(
          (0): HardBinaryConv()
          (1): BatchNorm2d(192, eps=1e-05, momentum=0.1, affine=True, track_running_stats=True)
          (2): LearnableBias()
          (3): PReLU(num_parameters=1)
          (4): LearnableBias()
        )
        (1): BinaryConvBNReLU(
          (0): HardBinaryConv()
          (1): BatchNorm2d(192, eps=1e-05, momentum=0.1, affine=True, track_running_stats=True)
          (2): LearnableBias()
          (3): PReLU(num_parameters=1)
          (4): LearnableBias()
        )
        (2): HardBinaryConv()
        (3): BatchNorm2d(32, eps=1e-05, momentum=0.1, affine=True, track_running_stats=True)
      )
    )
    (7): BasicBlock(
      (conv): Sequential(
        (0): BinaryConvBNReLU(
          (0): HardBinaryConv()
          (1): BatchNorm2d(192, eps=1e-05, momentum=0.1, affine=True, track_running_stats=True)
          (2): LearnableBias()
          (3): PReLU(num_parameters=1)
          (4): LearnableBias()
        )
        (1): BinaryConvBNReLU(
          (0): HardBinaryConv()
          (1): BatchNorm2d(192, eps=1e-05, momentum=0.1, affine=True, track_running_stats=True)
          (2): LearnableBias()
          (3): PReLU(num_parameters=1)
          (4): LearnableBias()
        )
        (2): HardBinaryConv()
        (3): BatchNorm2d(64, eps=1e-05, momentum=0.1, affine=True, track_running_stats=True)
      )
    )
    (8): BasicBlock(
      (conv): Sequential(
        (0): BinaryConvBNReLU(
          (0): HardBinaryConv()
          (1): BatchNorm2d(384, eps=1e-05, momentum=0.1, affine=True, track_running_stats=True)
          (2): LearnableBias()
          (3): PReLU(num_parameters=1)
          (4): LearnableBias()
        )
        (1): BinaryConvBNReLU(
          (0): HardBinaryConv()
          (1): BatchNorm2d(384, eps=1e-05, momentum=0.1, affine=True, track_running_stats=True)
          (2): LearnableBias()
          (3): PReLU(num_parameters=1)
          (4): LearnableBias()
        )
        (2): HardBinaryConv()
        (3): BatchNorm2d(64, eps=1e-05, momentum=0.1, affine=True, track_running_stats=True)
      )
    )
    (9): BasicBlock(
      (conv): Sequential(
        (0): BinaryConvBNReLU(
          (0): HardBinaryConv()
          (1): BatchNorm2d(384, eps=1e-05, momentum=0.1, affine=True, track_running_stats=True)
          (2): LearnableBias()
          (3): PReLU(num_parameters=1)
          (4): LearnableBias()
        )
        (1): BinaryConvBNReLU(
          (0): HardBinaryConv()
          (1): BatchNorm2d(384, eps=1e-05, momentum=0.1, affine=True, track_running_stats=True)
          (2): LearnableBias()
          (3): PReLU(num_parameters=1)
          (4): LearnableBias()
        )
        (2): HardBinaryConv()
        (3): BatchNorm2d(64, eps=1e-05, momentum=0.1, affine=True, track_running_stats=True)
      )
    )
    (10): BasicBlock(
      (conv): Sequential(
        (0): BinaryConvBNReLU(
          (0): HardBinaryConv()
          (1): BatchNorm2d(384, eps=1e-05, momentum=0.1, affine=True, track_running_stats=True)
          (2): LearnableBias()
          (3): PReLU(num_parameters=1)
          (4): LearnableBias()
        )
        (1): BinaryConvBNReLU(
          (0): HardBinaryConv()
          (1): BatchNorm2d(384, eps=1e-05, momentum=0.1, affine=True, track_running_stats=True)
          (2): LearnableBias()
          (3): PReLU(num_parameters=1)
          (4): LearnableBias()
        )
        (2): HardBinaryConv()
        (3): BatchNorm2d(64, eps=1e-05, momentum=0.1, affine=True, track_running_stats=True)
      )
    )
    (11): BasicBlock(
      (conv): Sequential(
        (0): BinaryConvBNReLU(
          (0): HardBinaryConv()
          (1): BatchNorm2d(384, eps=1e-05, momentum=0.1, affine=True, track_running_stats=True)
          (2): LearnableBias()
          (3): PReLU(num_parameters=1)
          (4): LearnableBias()
        )
        (1): BinaryConvBNReLU(
          (0): HardBinaryConv()
          (1): BatchNorm2d(384, eps=1e-05, momentum=0.1, affine=True, track_running_stats=True)
          (2): LearnableBias()
          (3): PReLU(num_parameters=1)
          (4): LearnableBias()
        )
        (2): HardBinaryConv()
        (3): BatchNorm2d(96, eps=1e-05, momentum=0.1, affine=True, track_running_stats=True)
      )
    )
    (12): BasicBlock(
      (conv): Sequential(
        (0): BinaryConvBNReLU(
          (0): HardBinaryConv()
          (1): BatchNorm2d(576, eps=1e-05, momentum=0.1, affine=True, track_running_stats=True)
          (2): LearnableBias()
          (3): PReLU(num_parameters=1)
          (4): LearnableBias()
        )
        (1): BinaryConvBNReLU(
          (0): HardBinaryConv()
          (1): BatchNorm2d(576, eps=1e-05, momentum=0.1, affine=True, track_running_stats=True)
          (2): LearnableBias()
          (3): PReLU(num_parameters=1)
          (4): LearnableBias()
        )
        (2): HardBinaryConv()
        (3): BatchNorm2d(96, eps=1e-05, momentum=0.1, affine=True, track_running_stats=True)
      )
    )
    (13): BasicBlock(
      (conv): Sequential(
        (0): BinaryConvBNReLU(
          (0): HardBinaryConv()
          (1): BatchNorm2d(576, eps=1e-05, momentum=0.1, affine=True, track_running_stats=True)
          (2): LearnableBias()
          (3): PReLU(num_parameters=1)
          (4): LearnableBias()
        )
        (1): BinaryConvBNReLU(
          (0): HardBinaryConv()
          (1): BatchNorm2d(576, eps=1e-05, momentum=0.1, affine=True, track_running_stats=True)
          (2): LearnableBias()
          (3): PReLU(num_parameters=1)
          (4): LearnableBias()
        )
        (2): HardBinaryConv()
        (3): BatchNorm2d(96, eps=1e-05, momentum=0.1, affine=True, track_running_stats=True)
      )
    )
    (14): BasicBlock(
      (conv): Sequential(
        (0): BinaryConvBNReLU(
          (0): HardBinaryConv()
          (1): BatchNorm2d(576, eps=1e-05, momentum=0.1, affine=True, track_running_stats=True)
          (2): LearnableBias()
          (3): PReLU(num_parameters=1)
          (4): LearnableBias()
        )
        (1): BinaryConvBNReLU(
          (0): HardBinaryConv()
          (1): BatchNorm2d(576, eps=1e-05, momentum=0.1, affine=True, track_running_stats=True)
          (2): LearnableBias()
          (3): PReLU(num_parameters=1)
          (4): LearnableBias()
        )
        (2): HardBinaryConv()
        (3): BatchNorm2d(160, eps=1e-05, momentum=0.1, affine=True, track_running_stats=True)
      )
    )
    (15): BasicBlock(
      (conv): Sequential(
        (0): BinaryConvBNReLU(
          (0): HardBinaryConv()
          (1): BatchNorm2d(960, eps=1e-05, momentum=0.1, affine=True, track_running_stats=True)
          (2): LearnableBias()
          (3): PReLU(num_parameters=1)
          (4): LearnableBias()
        )
        (1): BinaryConvBNReLU(
          (0): HardBinaryConv()
          (1): BatchNorm2d(960, eps=1e-05, momentum=0.1, affine=True, track_running_stats=True)
          (2): LearnableBias()
          (3): PReLU(num_parameters=1)
          (4): LearnableBias()
        )
        (2): HardBinaryConv()
        (3): BatchNorm2d(160, eps=1e-05, momentum=0.1, affine=True, track_running_stats=True)
      )
    )
    (16): BasicBlock(
      (conv): Sequential(
        (0): BinaryConvBNReLU(
          (0): HardBinaryConv()
          (1): BatchNorm2d(960, eps=1e-05, momentum=0.1, affine=True, track_running_stats=True)
          (2): LearnableBias()
          (3): PReLU(num_parameters=1)
          (4): LearnableBias()
        )
        (1): BinaryConvBNReLU(
          (0): HardBinaryConv()
          (1): BatchNorm2d(960, eps=1e-05, momentum=0.1, affine=True, track_running_stats=True)
          (2): LearnableBias()
          (3): PReLU(num_parameters=1)
          (4): LearnableBias()
        )
        (2): HardBinaryConv()
        (3): BatchNorm2d(160, eps=1e-05, momentum=0.1, affine=True, track_running_stats=True)
      )
    )
    (17): BasicBlock(
      (conv): Sequential(
        (0): BinaryConvBNReLU(
          (0): HardBinaryConv()
          (1): BatchNorm2d(960, eps=1e-05, momentum=0.1, affine=True, track_running_stats=True)
          (2): LearnableBias()
          (3): PReLU(num_parameters=1)
          (4): LearnableBias()
        )
        (1): BinaryConvBNReLU(
          (0): HardBinaryConv()
          (1): BatchNorm2d(960, eps=1e-05, momentum=0.1, affine=True, track_running_stats=True)
          (2): LearnableBias()
          (3): PReLU(num_parameters=1)
          (4): LearnableBias()
        )
        (2): HardBinaryConv()
        (3): BatchNorm2d(320, eps=1e-05, momentum=0.1, affine=True, track_running_stats=True)
      )
    )
    (18): BinaryConvBNReLU(
      (0): HardBinaryConv()
      (1): BatchNorm2d(1280, eps=1e-05, momentum=0.1, affine=True, track_running_stats=True)
      (2): LearnableBias()
      (3): PReLU(num_parameters=1)
      (4): LearnableBias()
    )
  )
  (classifier): Sequential(
    (0): Dropout(p=0.2, inplace=False)
    (1): Linear(in_features=1280, out_features=10, bias=True)
  )
)
2020-12-23 20:22:14,706 args = Namespace(batch_size=448, epochs=256, label_smooth=0.1, learning_rate=0.01, momentum=0.9, save='./models', teacher='resnet18', weight_decay=0.0, workers=16)
2020-12-23 20:22:19,741 student:
2020-12-23 20:22:19,741 reactnetv2(
  (features): Sequential(
    (0): ConvBNReLU(
      (0): Conv2d(3, 32, kernel_size=(3, 3), stride=(1, 1), padding=(1, 1), bias=False)
      (1): BatchNorm2d(32, eps=1e-05, momentum=0.1, affine=True, track_running_stats=True)
      (2): LearnableBias()
      (3): PReLU(num_parameters=1)
      (4): LearnableBias()
    )
    (1): BasicBlock(
      (conv): Sequential(
        (0): BinaryConvBNReLU(
          (0): HardBinaryConv()
          (1): BatchNorm2d(32, eps=1e-05, momentum=0.1, affine=True, track_running_stats=True)
          (2): LearnableBias()
          (3): PReLU(num_parameters=1)
          (4): LearnableBias()
        )
        (1): HardBinaryConv()
        (2): BatchNorm2d(16, eps=1e-05, momentum=0.1, affine=True, track_running_stats=True)
      )
    )
    (2): BasicBlock(
      (conv): Sequential(
        (0): BinaryConvBNReLU(
          (0): HardBinaryConv()
          (1): BatchNorm2d(96, eps=1e-05, momentum=0.1, affine=True, track_running_stats=True)
          (2): LearnableBias()
          (3): PReLU(num_parameters=1)
          (4): LearnableBias()
        )
        (1): BinaryConvBNReLU(
          (0): HardBinaryConv()
          (1): BatchNorm2d(96, eps=1e-05, momentum=0.1, affine=True, track_running_stats=True)
          (2): LearnableBias()
          (3): PReLU(num_parameters=1)
          (4): LearnableBias()
        )
        (2): HardBinaryConv()
        (3): BatchNorm2d(24, eps=1e-05, momentum=0.1, affine=True, track_running_stats=True)
      )
    )
    (3): BasicBlock(
      (conv): Sequential(
        (0): BinaryConvBNReLU(
          (0): HardBinaryConv()
          (1): BatchNorm2d(144, eps=1e-05, momentum=0.1, affine=True, track_running_stats=True)
          (2): LearnableBias()
          (3): PReLU(num_parameters=1)
          (4): LearnableBias()
        )
        (1): BinaryConvBNReLU(
          (0): HardBinaryConv()
          (1): BatchNorm2d(144, eps=1e-05, momentum=0.1, affine=True, track_running_stats=True)
          (2): LearnableBias()
          (3): PReLU(num_parameters=1)
          (4): LearnableBias()
        )
        (2): HardBinaryConv()
        (3): BatchNorm2d(24, eps=1e-05, momentum=0.1, affine=True, track_running_stats=True)
      )
    )
    (4): BasicBlock(
      (conv): Sequential(
        (0): BinaryConvBNReLU(
          (0): HardBinaryConv()
          (1): BatchNorm2d(144, eps=1e-05, momentum=0.1, affine=True, track_running_stats=True)
          (2): LearnableBias()
          (3): PReLU(num_parameters=1)
          (4): LearnableBias()
        )
        (1): BinaryConvBNReLU(
          (0): HardBinaryConv()
          (1): BatchNorm2d(144, eps=1e-05, momentum=0.1, affine=True, track_running_stats=True)
          (2): LearnableBias()
          (3): PReLU(num_parameters=1)
          (4): LearnableBias()
        )
        (2): HardBinaryConv()
        (3): BatchNorm2d(32, eps=1e-05, momentum=0.1, affine=True, track_running_stats=True)
      )
    )
    (5): BasicBlock(
      (conv): Sequential(
        (0): BinaryConvBNReLU(
          (0): HardBinaryConv()
          (1): BatchNorm2d(192, eps=1e-05, momentum=0.1, affine=True, track_running_stats=True)
          (2): LearnableBias()
          (3): PReLU(num_parameters=1)
          (4): LearnableBias()
        )
        (1): BinaryConvBNReLU(
          (0): HardBinaryConv()
          (1): BatchNorm2d(192, eps=1e-05, momentum=0.1, affine=True, track_running_stats=True)
          (2): LearnableBias()
          (3): PReLU(num_parameters=1)
          (4): LearnableBias()
        )
        (2): HardBinaryConv()
        (3): BatchNorm2d(32, eps=1e-05, momentum=0.1, affine=True, track_running_stats=True)
      )
    )
    (6): BasicBlock(
      (conv): Sequential(
        (0): BinaryConvBNReLU(
          (0): HardBinaryConv()
          (1): BatchNorm2d(192, eps=1e-05, momentum=0.1, affine=True, track_running_stats=True)
          (2): LearnableBias()
          (3): PReLU(num_parameters=1)
          (4): LearnableBias()
        )
        (1): BinaryConvBNReLU(
          (0): HardBinaryConv()
          (1): BatchNorm2d(192, eps=1e-05, momentum=0.1, affine=True, track_running_stats=True)
          (2): LearnableBias()
          (3): PReLU(num_parameters=1)
          (4): LearnableBias()
        )
        (2): HardBinaryConv()
        (3): BatchNorm2d(32, eps=1e-05, momentum=0.1, affine=True, track_running_stats=True)
      )
    )
    (7): BasicBlock(
      (conv): Sequential(
        (0): BinaryConvBNReLU(
          (0): HardBinaryConv()
          (1): BatchNorm2d(192, eps=1e-05, momentum=0.1, affine=True, track_running_stats=True)
          (2): LearnableBias()
          (3): PReLU(num_parameters=1)
          (4): LearnableBias()
        )
        (1): BinaryConvBNReLU(
          (0): HardBinaryConv()
          (1): BatchNorm2d(192, eps=1e-05, momentum=0.1, affine=True, track_running_stats=True)
          (2): LearnableBias()
          (3): PReLU(num_parameters=1)
          (4): LearnableBias()
        )
        (2): HardBinaryConv()
        (3): BatchNorm2d(64, eps=1e-05, momentum=0.1, affine=True, track_running_stats=True)
      )
    )
    (8): BasicBlock(
      (conv): Sequential(
        (0): BinaryConvBNReLU(
          (0): HardBinaryConv()
          (1): BatchNorm2d(384, eps=1e-05, momentum=0.1, affine=True, track_running_stats=True)
          (2): LearnableBias()
          (3): PReLU(num_parameters=1)
          (4): LearnableBias()
        )
        (1): BinaryConvBNReLU(
          (0): HardBinaryConv()
          (1): BatchNorm2d(384, eps=1e-05, momentum=0.1, affine=True, track_running_stats=True)
          (2): LearnableBias()
          (3): PReLU(num_parameters=1)
          (4): LearnableBias()
        )
        (2): HardBinaryConv()
        (3): BatchNorm2d(64, eps=1e-05, momentum=0.1, affine=True, track_running_stats=True)
      )
    )
    (9): BasicBlock(
      (conv): Sequential(
        (0): BinaryConvBNReLU(
          (0): HardBinaryConv()
          (1): BatchNorm2d(384, eps=1e-05, momentum=0.1, affine=True, track_running_stats=True)
          (2): LearnableBias()
          (3): PReLU(num_parameters=1)
          (4): LearnableBias()
        )
        (1): BinaryConvBNReLU(
          (0): HardBinaryConv()
          (1): BatchNorm2d(384, eps=1e-05, momentum=0.1, affine=True, track_running_stats=True)
          (2): LearnableBias()
          (3): PReLU(num_parameters=1)
          (4): LearnableBias()
        )
        (2): HardBinaryConv()
        (3): BatchNorm2d(64, eps=1e-05, momentum=0.1, affine=True, track_running_stats=True)
      )
    )
    (10): BasicBlock(
      (conv): Sequential(
        (0): BinaryConvBNReLU(
          (0): HardBinaryConv()
          (1): BatchNorm2d(384, eps=1e-05, momentum=0.1, affine=True, track_running_stats=True)
          (2): LearnableBias()
          (3): PReLU(num_parameters=1)
          (4): LearnableBias()
        )
        (1): BinaryConvBNReLU(
          (0): HardBinaryConv()
          (1): BatchNorm2d(384, eps=1e-05, momentum=0.1, affine=True, track_running_stats=True)
          (2): LearnableBias()
          (3): PReLU(num_parameters=1)
          (4): LearnableBias()
        )
        (2): HardBinaryConv()
        (3): BatchNorm2d(64, eps=1e-05, momentum=0.1, affine=True, track_running_stats=True)
      )
    )
    (11): BasicBlock(
      (conv): Sequential(
        (0): BinaryConvBNReLU(
          (0): HardBinaryConv()
          (1): BatchNorm2d(384, eps=1e-05, momentum=0.1, affine=True, track_running_stats=True)
          (2): LearnableBias()
          (3): PReLU(num_parameters=1)
          (4): LearnableBias()
        )
        (1): BinaryConvBNReLU(
          (0): HardBinaryConv()
          (1): BatchNorm2d(384, eps=1e-05, momentum=0.1, affine=True, track_running_stats=True)
          (2): LearnableBias()
          (3): PReLU(num_parameters=1)
          (4): LearnableBias()
        )
        (2): HardBinaryConv()
        (3): BatchNorm2d(96, eps=1e-05, momentum=0.1, affine=True, track_running_stats=True)
      )
    )
    (12): BasicBlock(
      (conv): Sequential(
        (0): BinaryConvBNReLU(
          (0): HardBinaryConv()
          (1): BatchNorm2d(576, eps=1e-05, momentum=0.1, affine=True, track_running_stats=True)
          (2): LearnableBias()
          (3): PReLU(num_parameters=1)
          (4): LearnableBias()
        )
        (1): BinaryConvBNReLU(
          (0): HardBinaryConv()
          (1): BatchNorm2d(576, eps=1e-05, momentum=0.1, affine=True, track_running_stats=True)
          (2): LearnableBias()
          (3): PReLU(num_parameters=1)
          (4): LearnableBias()
        )
        (2): HardBinaryConv()
        (3): BatchNorm2d(96, eps=1e-05, momentum=0.1, affine=True, track_running_stats=True)
      )
    )
    (13): BasicBlock(
      (conv): Sequential(
        (0): BinaryConvBNReLU(
          (0): HardBinaryConv()
          (1): BatchNorm2d(576, eps=1e-05, momentum=0.1, affine=True, track_running_stats=True)
          (2): LearnableBias()
          (3): PReLU(num_parameters=1)
          (4): LearnableBias()
        )
        (1): BinaryConvBNReLU(
          (0): HardBinaryConv()
          (1): BatchNorm2d(576, eps=1e-05, momentum=0.1, affine=True, track_running_stats=True)
          (2): LearnableBias()
          (3): PReLU(num_parameters=1)
          (4): LearnableBias()
        )
        (2): HardBinaryConv()
        (3): BatchNorm2d(96, eps=1e-05, momentum=0.1, affine=True, track_running_stats=True)
      )
    )
    (14): BasicBlock(
      (conv): Sequential(
        (0): BinaryConvBNReLU(
          (0): HardBinaryConv()
          (1): BatchNorm2d(576, eps=1e-05, momentum=0.1, affine=True, track_running_stats=True)
          (2): LearnableBias()
          (3): PReLU(num_parameters=1)
          (4): LearnableBias()
        )
        (1): BinaryConvBNReLU(
          (0): HardBinaryConv()
          (1): BatchNorm2d(576, eps=1e-05, momentum=0.1, affine=True, track_running_stats=True)
          (2): LearnableBias()
          (3): PReLU(num_parameters=1)
          (4): LearnableBias()
        )
        (2): HardBinaryConv()
        (3): BatchNorm2d(160, eps=1e-05, momentum=0.1, affine=True, track_running_stats=True)
      )
    )
    (15): BasicBlock(
      (conv): Sequential(
        (0): BinaryConvBNReLU(
          (0): HardBinaryConv()
          (1): BatchNorm2d(960, eps=1e-05, momentum=0.1, affine=True, track_running_stats=True)
          (2): LearnableBias()
          (3): PReLU(num_parameters=1)
          (4): LearnableBias()
        )
        (1): BinaryConvBNReLU(
          (0): HardBinaryConv()
          (1): BatchNorm2d(960, eps=1e-05, momentum=0.1, affine=True, track_running_stats=True)
          (2): LearnableBias()
          (3): PReLU(num_parameters=1)
          (4): LearnableBias()
        )
        (2): HardBinaryConv()
        (3): BatchNorm2d(160, eps=1e-05, momentum=0.1, affine=True, track_running_stats=True)
      )
    )
    (16): BasicBlock(
      (conv): Sequential(
        (0): BinaryConvBNReLU(
          (0): HardBinaryConv()
          (1): BatchNorm2d(960, eps=1e-05, momentum=0.1, affine=True, track_running_stats=True)
          (2): LearnableBias()
          (3): PReLU(num_parameters=1)
          (4): LearnableBias()
        )
        (1): BinaryConvBNReLU(
          (0): HardBinaryConv()
          (1): BatchNorm2d(960, eps=1e-05, momentum=0.1, affine=True, track_running_stats=True)
          (2): LearnableBias()
          (3): PReLU(num_parameters=1)
          (4): LearnableBias()
        )
        (2): HardBinaryConv()
        (3): BatchNorm2d(160, eps=1e-05, momentum=0.1, affine=True, track_running_stats=True)
      )
    )
    (17): BasicBlock(
      (conv): Sequential(
        (0): BinaryConvBNReLU(
          (0): HardBinaryConv()
          (1): BatchNorm2d(960, eps=1e-05, momentum=0.1, affine=True, track_running_stats=True)
          (2): LearnableBias()
          (3): PReLU(num_parameters=1)
          (4): LearnableBias()
        )
        (1): BinaryConvBNReLU(
          (0): HardBinaryConv()
          (1): BatchNorm2d(960, eps=1e-05, momentum=0.1, affine=True, track_running_stats=True)
          (2): LearnableBias()
          (3): PReLU(num_parameters=1)
          (4): LearnableBias()
        )
        (2): HardBinaryConv()
        (3): BatchNorm2d(320, eps=1e-05, momentum=0.1, affine=True, track_running_stats=True)
      )
    )
    (18): BinaryConvBNReLU(
      (0): HardBinaryConv()
      (1): BatchNorm2d(1280, eps=1e-05, momentum=0.1, affine=True, track_running_stats=True)
      (2): LearnableBias()
      (3): PReLU(num_parameters=1)
      (4): LearnableBias()
    )
  )
  (classifier): Sequential(
    (0): Dropout(p=0.2, inplace=False)
    (1): Linear(in_features=1280, out_features=10, bias=True)
  )
)
2020-12-23 20:22:45,239 args = Namespace(batch_size=416, epochs=256, label_smooth=0.1, learning_rate=0.01, momentum=0.9, save='./models', teacher='resnet18', weight_decay=0.0, workers=16)
2020-12-23 20:22:50,357 student:
2020-12-23 20:22:50,357 reactnetv2(
  (features): Sequential(
    (0): ConvBNReLU(
      (0): Conv2d(3, 32, kernel_size=(3, 3), stride=(1, 1), padding=(1, 1), bias=False)
      (1): BatchNorm2d(32, eps=1e-05, momentum=0.1, affine=True, track_running_stats=True)
      (2): LearnableBias()
      (3): PReLU(num_parameters=1)
      (4): LearnableBias()
    )
    (1): BasicBlock(
      (conv): Sequential(
        (0): BinaryConvBNReLU(
          (0): HardBinaryConv()
          (1): BatchNorm2d(32, eps=1e-05, momentum=0.1, affine=True, track_running_stats=True)
          (2): LearnableBias()
          (3): PReLU(num_parameters=1)
          (4): LearnableBias()
        )
        (1): HardBinaryConv()
        (2): BatchNorm2d(16, eps=1e-05, momentum=0.1, affine=True, track_running_stats=True)
      )
    )
    (2): BasicBlock(
      (conv): Sequential(
        (0): BinaryConvBNReLU(
          (0): HardBinaryConv()
          (1): BatchNorm2d(96, eps=1e-05, momentum=0.1, affine=True, track_running_stats=True)
          (2): LearnableBias()
          (3): PReLU(num_parameters=1)
          (4): LearnableBias()
        )
        (1): BinaryConvBNReLU(
          (0): HardBinaryConv()
          (1): BatchNorm2d(96, eps=1e-05, momentum=0.1, affine=True, track_running_stats=True)
          (2): LearnableBias()
          (3): PReLU(num_parameters=1)
          (4): LearnableBias()
        )
        (2): HardBinaryConv()
        (3): BatchNorm2d(24, eps=1e-05, momentum=0.1, affine=True, track_running_stats=True)
      )
    )
    (3): BasicBlock(
      (conv): Sequential(
        (0): BinaryConvBNReLU(
          (0): HardBinaryConv()
          (1): BatchNorm2d(144, eps=1e-05, momentum=0.1, affine=True, track_running_stats=True)
          (2): LearnableBias()
          (3): PReLU(num_parameters=1)
          (4): LearnableBias()
        )
        (1): BinaryConvBNReLU(
          (0): HardBinaryConv()
          (1): BatchNorm2d(144, eps=1e-05, momentum=0.1, affine=True, track_running_stats=True)
          (2): LearnableBias()
          (3): PReLU(num_parameters=1)
          (4): LearnableBias()
        )
        (2): HardBinaryConv()
        (3): BatchNorm2d(24, eps=1e-05, momentum=0.1, affine=True, track_running_stats=True)
      )
    )
    (4): BasicBlock(
      (conv): Sequential(
        (0): BinaryConvBNReLU(
          (0): HardBinaryConv()
          (1): BatchNorm2d(144, eps=1e-05, momentum=0.1, affine=True, track_running_stats=True)
          (2): LearnableBias()
          (3): PReLU(num_parameters=1)
          (4): LearnableBias()
        )
        (1): BinaryConvBNReLU(
          (0): HardBinaryConv()
          (1): BatchNorm2d(144, eps=1e-05, momentum=0.1, affine=True, track_running_stats=True)
          (2): LearnableBias()
          (3): PReLU(num_parameters=1)
          (4): LearnableBias()
        )
        (2): HardBinaryConv()
        (3): BatchNorm2d(32, eps=1e-05, momentum=0.1, affine=True, track_running_stats=True)
      )
    )
    (5): BasicBlock(
      (conv): Sequential(
        (0): BinaryConvBNReLU(
          (0): HardBinaryConv()
          (1): BatchNorm2d(192, eps=1e-05, momentum=0.1, affine=True, track_running_stats=True)
          (2): LearnableBias()
          (3): PReLU(num_parameters=1)
          (4): LearnableBias()
        )
        (1): BinaryConvBNReLU(
          (0): HardBinaryConv()
          (1): BatchNorm2d(192, eps=1e-05, momentum=0.1, affine=True, track_running_stats=True)
          (2): LearnableBias()
          (3): PReLU(num_parameters=1)
          (4): LearnableBias()
        )
        (2): HardBinaryConv()
        (3): BatchNorm2d(32, eps=1e-05, momentum=0.1, affine=True, track_running_stats=True)
      )
    )
    (6): BasicBlock(
      (conv): Sequential(
        (0): BinaryConvBNReLU(
          (0): HardBinaryConv()
          (1): BatchNorm2d(192, eps=1e-05, momentum=0.1, affine=True, track_running_stats=True)
          (2): LearnableBias()
          (3): PReLU(num_parameters=1)
          (4): LearnableBias()
        )
        (1): BinaryConvBNReLU(
          (0): HardBinaryConv()
          (1): BatchNorm2d(192, eps=1e-05, momentum=0.1, affine=True, track_running_stats=True)
          (2): LearnableBias()
          (3): PReLU(num_parameters=1)
          (4): LearnableBias()
        )
        (2): HardBinaryConv()
        (3): BatchNorm2d(32, eps=1e-05, momentum=0.1, affine=True, track_running_stats=True)
      )
    )
    (7): BasicBlock(
      (conv): Sequential(
        (0): BinaryConvBNReLU(
          (0): HardBinaryConv()
          (1): BatchNorm2d(192, eps=1e-05, momentum=0.1, affine=True, track_running_stats=True)
          (2): LearnableBias()
          (3): PReLU(num_parameters=1)
          (4): LearnableBias()
        )
        (1): BinaryConvBNReLU(
          (0): HardBinaryConv()
          (1): BatchNorm2d(192, eps=1e-05, momentum=0.1, affine=True, track_running_stats=True)
          (2): LearnableBias()
          (3): PReLU(num_parameters=1)
          (4): LearnableBias()
        )
        (2): HardBinaryConv()
        (3): BatchNorm2d(64, eps=1e-05, momentum=0.1, affine=True, track_running_stats=True)
      )
    )
    (8): BasicBlock(
      (conv): Sequential(
        (0): BinaryConvBNReLU(
          (0): HardBinaryConv()
          (1): BatchNorm2d(384, eps=1e-05, momentum=0.1, affine=True, track_running_stats=True)
          (2): LearnableBias()
          (3): PReLU(num_parameters=1)
          (4): LearnableBias()
        )
        (1): BinaryConvBNReLU(
          (0): HardBinaryConv()
          (1): BatchNorm2d(384, eps=1e-05, momentum=0.1, affine=True, track_running_stats=True)
          (2): LearnableBias()
          (3): PReLU(num_parameters=1)
          (4): LearnableBias()
        )
        (2): HardBinaryConv()
        (3): BatchNorm2d(64, eps=1e-05, momentum=0.1, affine=True, track_running_stats=True)
      )
    )
    (9): BasicBlock(
      (conv): Sequential(
        (0): BinaryConvBNReLU(
          (0): HardBinaryConv()
          (1): BatchNorm2d(384, eps=1e-05, momentum=0.1, affine=True, track_running_stats=True)
          (2): LearnableBias()
          (3): PReLU(num_parameters=1)
          (4): LearnableBias()
        )
        (1): BinaryConvBNReLU(
          (0): HardBinaryConv()
          (1): BatchNorm2d(384, eps=1e-05, momentum=0.1, affine=True, track_running_stats=True)
          (2): LearnableBias()
          (3): PReLU(num_parameters=1)
          (4): LearnableBias()
        )
        (2): HardBinaryConv()
        (3): BatchNorm2d(64, eps=1e-05, momentum=0.1, affine=True, track_running_stats=True)
      )
    )
    (10): BasicBlock(
      (conv): Sequential(
        (0): BinaryConvBNReLU(
          (0): HardBinaryConv()
          (1): BatchNorm2d(384, eps=1e-05, momentum=0.1, affine=True, track_running_stats=True)
          (2): LearnableBias()
          (3): PReLU(num_parameters=1)
          (4): LearnableBias()
        )
        (1): BinaryConvBNReLU(
          (0): HardBinaryConv()
          (1): BatchNorm2d(384, eps=1e-05, momentum=0.1, affine=True, track_running_stats=True)
          (2): LearnableBias()
          (3): PReLU(num_parameters=1)
          (4): LearnableBias()
        )
        (2): HardBinaryConv()
        (3): BatchNorm2d(64, eps=1e-05, momentum=0.1, affine=True, track_running_stats=True)
      )
    )
    (11): BasicBlock(
      (conv): Sequential(
        (0): BinaryConvBNReLU(
          (0): HardBinaryConv()
          (1): BatchNorm2d(384, eps=1e-05, momentum=0.1, affine=True, track_running_stats=True)
          (2): LearnableBias()
          (3): PReLU(num_parameters=1)
          (4): LearnableBias()
        )
        (1): BinaryConvBNReLU(
          (0): HardBinaryConv()
          (1): BatchNorm2d(384, eps=1e-05, momentum=0.1, affine=True, track_running_stats=True)
          (2): LearnableBias()
          (3): PReLU(num_parameters=1)
          (4): LearnableBias()
        )
        (2): HardBinaryConv()
        (3): BatchNorm2d(96, eps=1e-05, momentum=0.1, affine=True, track_running_stats=True)
      )
    )
    (12): BasicBlock(
      (conv): Sequential(
        (0): BinaryConvBNReLU(
          (0): HardBinaryConv()
          (1): BatchNorm2d(576, eps=1e-05, momentum=0.1, affine=True, track_running_stats=True)
          (2): LearnableBias()
          (3): PReLU(num_parameters=1)
          (4): LearnableBias()
        )
        (1): BinaryConvBNReLU(
          (0): HardBinaryConv()
          (1): BatchNorm2d(576, eps=1e-05, momentum=0.1, affine=True, track_running_stats=True)
          (2): LearnableBias()
          (3): PReLU(num_parameters=1)
          (4): LearnableBias()
        )
        (2): HardBinaryConv()
        (3): BatchNorm2d(96, eps=1e-05, momentum=0.1, affine=True, track_running_stats=True)
      )
    )
    (13): BasicBlock(
      (conv): Sequential(
        (0): BinaryConvBNReLU(
          (0): HardBinaryConv()
          (1): BatchNorm2d(576, eps=1e-05, momentum=0.1, affine=True, track_running_stats=True)
          (2): LearnableBias()
          (3): PReLU(num_parameters=1)
          (4): LearnableBias()
        )
        (1): BinaryConvBNReLU(
          (0): HardBinaryConv()
          (1): BatchNorm2d(576, eps=1e-05, momentum=0.1, affine=True, track_running_stats=True)
          (2): LearnableBias()
          (3): PReLU(num_parameters=1)
          (4): LearnableBias()
        )
        (2): HardBinaryConv()
        (3): BatchNorm2d(96, eps=1e-05, momentum=0.1, affine=True, track_running_stats=True)
      )
    )
    (14): BasicBlock(
      (conv): Sequential(
        (0): BinaryConvBNReLU(
          (0): HardBinaryConv()
          (1): BatchNorm2d(576, eps=1e-05, momentum=0.1, affine=True, track_running_stats=True)
          (2): LearnableBias()
          (3): PReLU(num_parameters=1)
          (4): LearnableBias()
        )
        (1): BinaryConvBNReLU(
          (0): HardBinaryConv()
          (1): BatchNorm2d(576, eps=1e-05, momentum=0.1, affine=True, track_running_stats=True)
          (2): LearnableBias()
          (3): PReLU(num_parameters=1)
          (4): LearnableBias()
        )
        (2): HardBinaryConv()
        (3): BatchNorm2d(160, eps=1e-05, momentum=0.1, affine=True, track_running_stats=True)
      )
    )
    (15): BasicBlock(
      (conv): Sequential(
        (0): BinaryConvBNReLU(
          (0): HardBinaryConv()
          (1): BatchNorm2d(960, eps=1e-05, momentum=0.1, affine=True, track_running_stats=True)
          (2): LearnableBias()
          (3): PReLU(num_parameters=1)
          (4): LearnableBias()
        )
        (1): BinaryConvBNReLU(
          (0): HardBinaryConv()
          (1): BatchNorm2d(960, eps=1e-05, momentum=0.1, affine=True, track_running_stats=True)
          (2): LearnableBias()
          (3): PReLU(num_parameters=1)
          (4): LearnableBias()
        )
        (2): HardBinaryConv()
        (3): BatchNorm2d(160, eps=1e-05, momentum=0.1, affine=True, track_running_stats=True)
      )
    )
    (16): BasicBlock(
      (conv): Sequential(
        (0): BinaryConvBNReLU(
          (0): HardBinaryConv()
          (1): BatchNorm2d(960, eps=1e-05, momentum=0.1, affine=True, track_running_stats=True)
          (2): LearnableBias()
          (3): PReLU(num_parameters=1)
          (4): LearnableBias()
        )
        (1): BinaryConvBNReLU(
          (0): HardBinaryConv()
          (1): BatchNorm2d(960, eps=1e-05, momentum=0.1, affine=True, track_running_stats=True)
          (2): LearnableBias()
          (3): PReLU(num_parameters=1)
          (4): LearnableBias()
        )
        (2): HardBinaryConv()
        (3): BatchNorm2d(160, eps=1e-05, momentum=0.1, affine=True, track_running_stats=True)
      )
    )
    (17): BasicBlock(
      (conv): Sequential(
        (0): BinaryConvBNReLU(
          (0): HardBinaryConv()
          (1): BatchNorm2d(960, eps=1e-05, momentum=0.1, affine=True, track_running_stats=True)
          (2): LearnableBias()
          (3): PReLU(num_parameters=1)
          (4): LearnableBias()
        )
        (1): BinaryConvBNReLU(
          (0): HardBinaryConv()
          (1): BatchNorm2d(960, eps=1e-05, momentum=0.1, affine=True, track_running_stats=True)
          (2): LearnableBias()
          (3): PReLU(num_parameters=1)
          (4): LearnableBias()
        )
        (2): HardBinaryConv()
        (3): BatchNorm2d(320, eps=1e-05, momentum=0.1, affine=True, track_running_stats=True)
      )
    )
    (18): BinaryConvBNReLU(
      (0): HardBinaryConv()
      (1): BatchNorm2d(1280, eps=1e-05, momentum=0.1, affine=True, track_running_stats=True)
      (2): LearnableBias()
      (3): PReLU(num_parameters=1)
      (4): LearnableBias()
    )
  )
  (classifier): Sequential(
    (0): Dropout(p=0.2, inplace=False)
    (1): Linear(in_features=1280, out_features=10, bias=True)
  )
)
2020-12-23 20:23:21,105 args = Namespace(batch_size=384, epochs=256, label_smooth=0.1, learning_rate=0.01, momentum=0.9, save='./models', teacher='resnet18', weight_decay=0.0, workers=16)
2020-12-23 20:23:26,055 student:
2020-12-23 20:23:26,055 reactnetv2(
  (features): Sequential(
    (0): ConvBNReLU(
      (0): Conv2d(3, 32, kernel_size=(3, 3), stride=(1, 1), padding=(1, 1), bias=False)
      (1): BatchNorm2d(32, eps=1e-05, momentum=0.1, affine=True, track_running_stats=True)
      (2): LearnableBias()
      (3): PReLU(num_parameters=1)
      (4): LearnableBias()
    )
    (1): BasicBlock(
      (conv): Sequential(
        (0): BinaryConvBNReLU(
          (0): HardBinaryConv()
          (1): BatchNorm2d(32, eps=1e-05, momentum=0.1, affine=True, track_running_stats=True)
          (2): LearnableBias()
          (3): PReLU(num_parameters=1)
          (4): LearnableBias()
        )
        (1): HardBinaryConv()
        (2): BatchNorm2d(16, eps=1e-05, momentum=0.1, affine=True, track_running_stats=True)
      )
    )
    (2): BasicBlock(
      (conv): Sequential(
        (0): BinaryConvBNReLU(
          (0): HardBinaryConv()
          (1): BatchNorm2d(96, eps=1e-05, momentum=0.1, affine=True, track_running_stats=True)
          (2): LearnableBias()
          (3): PReLU(num_parameters=1)
          (4): LearnableBias()
        )
        (1): BinaryConvBNReLU(
          (0): HardBinaryConv()
          (1): BatchNorm2d(96, eps=1e-05, momentum=0.1, affine=True, track_running_stats=True)
          (2): LearnableBias()
          (3): PReLU(num_parameters=1)
          (4): LearnableBias()
        )
        (2): HardBinaryConv()
        (3): BatchNorm2d(24, eps=1e-05, momentum=0.1, affine=True, track_running_stats=True)
      )
    )
    (3): BasicBlock(
      (conv): Sequential(
        (0): BinaryConvBNReLU(
          (0): HardBinaryConv()
          (1): BatchNorm2d(144, eps=1e-05, momentum=0.1, affine=True, track_running_stats=True)
          (2): LearnableBias()
          (3): PReLU(num_parameters=1)
          (4): LearnableBias()
        )
        (1): BinaryConvBNReLU(
          (0): HardBinaryConv()
          (1): BatchNorm2d(144, eps=1e-05, momentum=0.1, affine=True, track_running_stats=True)
          (2): LearnableBias()
          (3): PReLU(num_parameters=1)
          (4): LearnableBias()
        )
        (2): HardBinaryConv()
        (3): BatchNorm2d(24, eps=1e-05, momentum=0.1, affine=True, track_running_stats=True)
      )
    )
    (4): BasicBlock(
      (conv): Sequential(
        (0): BinaryConvBNReLU(
          (0): HardBinaryConv()
          (1): BatchNorm2d(144, eps=1e-05, momentum=0.1, affine=True, track_running_stats=True)
          (2): LearnableBias()
          (3): PReLU(num_parameters=1)
          (4): LearnableBias()
        )
        (1): BinaryConvBNReLU(
          (0): HardBinaryConv()
          (1): BatchNorm2d(144, eps=1e-05, momentum=0.1, affine=True, track_running_stats=True)
          (2): LearnableBias()
          (3): PReLU(num_parameters=1)
          (4): LearnableBias()
        )
        (2): HardBinaryConv()
        (3): BatchNorm2d(32, eps=1e-05, momentum=0.1, affine=True, track_running_stats=True)
      )
    )
    (5): BasicBlock(
      (conv): Sequential(
        (0): BinaryConvBNReLU(
          (0): HardBinaryConv()
          (1): BatchNorm2d(192, eps=1e-05, momentum=0.1, affine=True, track_running_stats=True)
          (2): LearnableBias()
          (3): PReLU(num_parameters=1)
          (4): LearnableBias()
        )
        (1): BinaryConvBNReLU(
          (0): HardBinaryConv()
          (1): BatchNorm2d(192, eps=1e-05, momentum=0.1, affine=True, track_running_stats=True)
          (2): LearnableBias()
          (3): PReLU(num_parameters=1)
          (4): LearnableBias()
        )
        (2): HardBinaryConv()
        (3): BatchNorm2d(32, eps=1e-05, momentum=0.1, affine=True, track_running_stats=True)
      )
    )
    (6): BasicBlock(
      (conv): Sequential(
        (0): BinaryConvBNReLU(
          (0): HardBinaryConv()
          (1): BatchNorm2d(192, eps=1e-05, momentum=0.1, affine=True, track_running_stats=True)
          (2): LearnableBias()
          (3): PReLU(num_parameters=1)
          (4): LearnableBias()
        )
        (1): BinaryConvBNReLU(
          (0): HardBinaryConv()
          (1): BatchNorm2d(192, eps=1e-05, momentum=0.1, affine=True, track_running_stats=True)
          (2): LearnableBias()
          (3): PReLU(num_parameters=1)
          (4): LearnableBias()
        )
        (2): HardBinaryConv()
        (3): BatchNorm2d(32, eps=1e-05, momentum=0.1, affine=True, track_running_stats=True)
      )
    )
    (7): BasicBlock(
      (conv): Sequential(
        (0): BinaryConvBNReLU(
          (0): HardBinaryConv()
          (1): BatchNorm2d(192, eps=1e-05, momentum=0.1, affine=True, track_running_stats=True)
          (2): LearnableBias()
          (3): PReLU(num_parameters=1)
          (4): LearnableBias()
        )
        (1): BinaryConvBNReLU(
          (0): HardBinaryConv()
          (1): BatchNorm2d(192, eps=1e-05, momentum=0.1, affine=True, track_running_stats=True)
          (2): LearnableBias()
          (3): PReLU(num_parameters=1)
          (4): LearnableBias()
        )
        (2): HardBinaryConv()
        (3): BatchNorm2d(64, eps=1e-05, momentum=0.1, affine=True, track_running_stats=True)
      )
    )
    (8): BasicBlock(
      (conv): Sequential(
        (0): BinaryConvBNReLU(
          (0): HardBinaryConv()
          (1): BatchNorm2d(384, eps=1e-05, momentum=0.1, affine=True, track_running_stats=True)
          (2): LearnableBias()
          (3): PReLU(num_parameters=1)
          (4): LearnableBias()
        )
        (1): BinaryConvBNReLU(
          (0): HardBinaryConv()
          (1): BatchNorm2d(384, eps=1e-05, momentum=0.1, affine=True, track_running_stats=True)
          (2): LearnableBias()
          (3): PReLU(num_parameters=1)
          (4): LearnableBias()
        )
        (2): HardBinaryConv()
        (3): BatchNorm2d(64, eps=1e-05, momentum=0.1, affine=True, track_running_stats=True)
      )
    )
    (9): BasicBlock(
      (conv): Sequential(
        (0): BinaryConvBNReLU(
          (0): HardBinaryConv()
          (1): BatchNorm2d(384, eps=1e-05, momentum=0.1, affine=True, track_running_stats=True)
          (2): LearnableBias()
          (3): PReLU(num_parameters=1)
          (4): LearnableBias()
        )
        (1): BinaryConvBNReLU(
          (0): HardBinaryConv()
          (1): BatchNorm2d(384, eps=1e-05, momentum=0.1, affine=True, track_running_stats=True)
          (2): LearnableBias()
          (3): PReLU(num_parameters=1)
          (4): LearnableBias()
        )
        (2): HardBinaryConv()
        (3): BatchNorm2d(64, eps=1e-05, momentum=0.1, affine=True, track_running_stats=True)
      )
    )
    (10): BasicBlock(
      (conv): Sequential(
        (0): BinaryConvBNReLU(
          (0): HardBinaryConv()
          (1): BatchNorm2d(384, eps=1e-05, momentum=0.1, affine=True, track_running_stats=True)
          (2): LearnableBias()
          (3): PReLU(num_parameters=1)
          (4): LearnableBias()
        )
        (1): BinaryConvBNReLU(
          (0): HardBinaryConv()
          (1): BatchNorm2d(384, eps=1e-05, momentum=0.1, affine=True, track_running_stats=True)
          (2): LearnableBias()
          (3): PReLU(num_parameters=1)
          (4): LearnableBias()
        )
        (2): HardBinaryConv()
        (3): BatchNorm2d(64, eps=1e-05, momentum=0.1, affine=True, track_running_stats=True)
      )
    )
    (11): BasicBlock(
      (conv): Sequential(
        (0): BinaryConvBNReLU(
          (0): HardBinaryConv()
          (1): BatchNorm2d(384, eps=1e-05, momentum=0.1, affine=True, track_running_stats=True)
          (2): LearnableBias()
          (3): PReLU(num_parameters=1)
          (4): LearnableBias()
        )
        (1): BinaryConvBNReLU(
          (0): HardBinaryConv()
          (1): BatchNorm2d(384, eps=1e-05, momentum=0.1, affine=True, track_running_stats=True)
          (2): LearnableBias()
          (3): PReLU(num_parameters=1)
          (4): LearnableBias()
        )
        (2): HardBinaryConv()
        (3): BatchNorm2d(96, eps=1e-05, momentum=0.1, affine=True, track_running_stats=True)
      )
    )
    (12): BasicBlock(
      (conv): Sequential(
        (0): BinaryConvBNReLU(
          (0): HardBinaryConv()
          (1): BatchNorm2d(576, eps=1e-05, momentum=0.1, affine=True, track_running_stats=True)
          (2): LearnableBias()
          (3): PReLU(num_parameters=1)
          (4): LearnableBias()
        )
        (1): BinaryConvBNReLU(
          (0): HardBinaryConv()
          (1): BatchNorm2d(576, eps=1e-05, momentum=0.1, affine=True, track_running_stats=True)
          (2): LearnableBias()
          (3): PReLU(num_parameters=1)
          (4): LearnableBias()
        )
        (2): HardBinaryConv()
        (3): BatchNorm2d(96, eps=1e-05, momentum=0.1, affine=True, track_running_stats=True)
      )
    )
    (13): BasicBlock(
      (conv): Sequential(
        (0): BinaryConvBNReLU(
          (0): HardBinaryConv()
          (1): BatchNorm2d(576, eps=1e-05, momentum=0.1, affine=True, track_running_stats=True)
          (2): LearnableBias()
          (3): PReLU(num_parameters=1)
          (4): LearnableBias()
        )
        (1): BinaryConvBNReLU(
          (0): HardBinaryConv()
          (1): BatchNorm2d(576, eps=1e-05, momentum=0.1, affine=True, track_running_stats=True)
          (2): LearnableBias()
          (3): PReLU(num_parameters=1)
          (4): LearnableBias()
        )
        (2): HardBinaryConv()
        (3): BatchNorm2d(96, eps=1e-05, momentum=0.1, affine=True, track_running_stats=True)
      )
    )
    (14): BasicBlock(
      (conv): Sequential(
        (0): BinaryConvBNReLU(
          (0): HardBinaryConv()
          (1): BatchNorm2d(576, eps=1e-05, momentum=0.1, affine=True, track_running_stats=True)
          (2): LearnableBias()
          (3): PReLU(num_parameters=1)
          (4): LearnableBias()
        )
        (1): BinaryConvBNReLU(
          (0): HardBinaryConv()
          (1): BatchNorm2d(576, eps=1e-05, momentum=0.1, affine=True, track_running_stats=True)
          (2): LearnableBias()
          (3): PReLU(num_parameters=1)
          (4): LearnableBias()
        )
        (2): HardBinaryConv()
        (3): BatchNorm2d(160, eps=1e-05, momentum=0.1, affine=True, track_running_stats=True)
      )
    )
    (15): BasicBlock(
      (conv): Sequential(
        (0): BinaryConvBNReLU(
          (0): HardBinaryConv()
          (1): BatchNorm2d(960, eps=1e-05, momentum=0.1, affine=True, track_running_stats=True)
          (2): LearnableBias()
          (3): PReLU(num_parameters=1)
          (4): LearnableBias()
        )
        (1): BinaryConvBNReLU(
          (0): HardBinaryConv()
          (1): BatchNorm2d(960, eps=1e-05, momentum=0.1, affine=True, track_running_stats=True)
          (2): LearnableBias()
          (3): PReLU(num_parameters=1)
          (4): LearnableBias()
        )
        (2): HardBinaryConv()
        (3): BatchNorm2d(160, eps=1e-05, momentum=0.1, affine=True, track_running_stats=True)
      )
    )
    (16): BasicBlock(
      (conv): Sequential(
        (0): BinaryConvBNReLU(
          (0): HardBinaryConv()
          (1): BatchNorm2d(960, eps=1e-05, momentum=0.1, affine=True, track_running_stats=True)
          (2): LearnableBias()
          (3): PReLU(num_parameters=1)
          (4): LearnableBias()
        )
        (1): BinaryConvBNReLU(
          (0): HardBinaryConv()
          (1): BatchNorm2d(960, eps=1e-05, momentum=0.1, affine=True, track_running_stats=True)
          (2): LearnableBias()
          (3): PReLU(num_parameters=1)
          (4): LearnableBias()
        )
        (2): HardBinaryConv()
        (3): BatchNorm2d(160, eps=1e-05, momentum=0.1, affine=True, track_running_stats=True)
      )
    )
    (17): BasicBlock(
      (conv): Sequential(
        (0): BinaryConvBNReLU(
          (0): HardBinaryConv()
          (1): BatchNorm2d(960, eps=1e-05, momentum=0.1, affine=True, track_running_stats=True)
          (2): LearnableBias()
          (3): PReLU(num_parameters=1)
          (4): LearnableBias()
        )
        (1): BinaryConvBNReLU(
          (0): HardBinaryConv()
          (1): BatchNorm2d(960, eps=1e-05, momentum=0.1, affine=True, track_running_stats=True)
          (2): LearnableBias()
          (3): PReLU(num_parameters=1)
          (4): LearnableBias()
        )
        (2): HardBinaryConv()
        (3): BatchNorm2d(320, eps=1e-05, momentum=0.1, affine=True, track_running_stats=True)
      )
    )
    (18): BinaryConvBNReLU(
      (0): HardBinaryConv()
      (1): BatchNorm2d(1280, eps=1e-05, momentum=0.1, affine=True, track_running_stats=True)
      (2): LearnableBias()
      (3): PReLU(num_parameters=1)
      (4): LearnableBias()
    )
  )
  (classifier): Sequential(
    (0): Dropout(p=0.2, inplace=False)
    (1): Linear(in_features=1280, out_features=10, bias=True)
  )
)
