2020-12-22 06:39:26,458 args = Namespace(batch_size=512, epochs=256, label_smooth=0.1, learning_rate=0.01, momentum=0.9, save='./models', teacher='resnet34', weight_decay=1e-05, workers=16)
2020-12-22 06:39:33,789 student:
2020-12-22 06:39:33,789 reactnet(
  (feature): ModuleList(
    (0): firstconv3x3(
      (conv1): Conv2d(3, 32, kernel_size=(3, 3), stride=(1, 1), padding=(1, 1), bias=False)
      (bn1): BatchNorm2d(32, eps=1e-05, momentum=0.1, affine=True, track_running_stats=True)
    )
    (1): BasicBlock(
      (move11): LearnableBias()
      (binary_3x3): Conv2d(32, 32, kernel_size=(3, 3), stride=(1, 1), padding=(1, 1), bias=False)
      (bn1): BatchNorm2d(32, eps=1e-05, momentum=0.1, affine=True, track_running_stats=True)
      (move12): LearnableBias()
      (prelu1): PReLU(num_parameters=32)
      (move13): LearnableBias()
      (move21): LearnableBias()
      (binary_pw_down1): Conv2d(32, 32, kernel_size=(1, 1), stride=(1, 1), bias=False)
      (binary_pw_down2): Conv2d(32, 32, kernel_size=(1, 1), stride=(1, 1), bias=False)
      (bn2_1): BatchNorm2d(32, eps=1e-05, momentum=0.1, affine=True, track_running_stats=True)
      (bn2_2): BatchNorm2d(32, eps=1e-05, momentum=0.1, affine=True, track_running_stats=True)
      (move22): LearnableBias()
      (prelu2): PReLU(num_parameters=64)
      (move23): LearnableBias()
      (binary_activation): BinaryActivation()
      (pooling): AvgPool2d(kernel_size=2, stride=2, padding=0)
    )
    (2): BasicBlock(
      (move11): LearnableBias()
      (binary_3x3): Conv2d(64, 64, kernel_size=(3, 3), stride=(2, 2), padding=(1, 1), bias=False)
      (bn1): BatchNorm2d(64, eps=1e-05, momentum=0.1, affine=True, track_running_stats=True)
      (move12): LearnableBias()
      (prelu1): PReLU(num_parameters=64)
      (move13): LearnableBias()
      (move21): LearnableBias()
      (binary_pw_down1): Conv2d(64, 64, kernel_size=(1, 1), stride=(1, 1), bias=False)
      (binary_pw_down2): Conv2d(64, 64, kernel_size=(1, 1), stride=(1, 1), bias=False)
      (bn2_1): BatchNorm2d(64, eps=1e-05, momentum=0.1, affine=True, track_running_stats=True)
      (bn2_2): BatchNorm2d(64, eps=1e-05, momentum=0.1, affine=True, track_running_stats=True)
      (move22): LearnableBias()
      (prelu2): PReLU(num_parameters=128)
      (move23): LearnableBias()
      (binary_activation): BinaryActivation()
      (pooling): AvgPool2d(kernel_size=2, stride=2, padding=0)
    )
    (3): BasicBlock(
      (move11): LearnableBias()
      (binary_3x3): Conv2d(128, 128, kernel_size=(3, 3), stride=(1, 1), padding=(1, 1), bias=False)
      (bn1): BatchNorm2d(128, eps=1e-05, momentum=0.1, affine=True, track_running_stats=True)
      (move12): LearnableBias()
      (prelu1): PReLU(num_parameters=128)
      (move13): LearnableBias()
      (move21): LearnableBias()
      (binary_pw): Conv2d(128, 128, kernel_size=(1, 1), stride=(1, 1), bias=False)
      (bn2): BatchNorm2d(128, eps=1e-05, momentum=0.1, affine=True, track_running_stats=True)
      (move22): LearnableBias()
      (prelu2): PReLU(num_parameters=128)
      (move23): LearnableBias()
      (binary_activation): BinaryActivation()
    )
    (4): BasicBlock(
      (move11): LearnableBias()
      (binary_3x3): Conv2d(128, 128, kernel_size=(3, 3), stride=(2, 2), padding=(1, 1), bias=False)
      (bn1): BatchNorm2d(128, eps=1e-05, momentum=0.1, affine=True, track_running_stats=True)
      (move12): LearnableBias()
      (prelu1): PReLU(num_parameters=128)
      (move13): LearnableBias()
      (move21): LearnableBias()
      (binary_pw_down1): Conv2d(128, 128, kernel_size=(1, 1), stride=(1, 1), bias=False)
      (binary_pw_down2): Conv2d(128, 128, kernel_size=(1, 1), stride=(1, 1), bias=False)
      (bn2_1): BatchNorm2d(128, eps=1e-05, momentum=0.1, affine=True, track_running_stats=True)
      (bn2_2): BatchNorm2d(128, eps=1e-05, momentum=0.1, affine=True, track_running_stats=True)
      (move22): LearnableBias()
      (prelu2): PReLU(num_parameters=256)
      (move23): LearnableBias()
      (binary_activation): BinaryActivation()
      (pooling): AvgPool2d(kernel_size=2, stride=2, padding=0)
    )
    (5): BasicBlock(
      (move11): LearnableBias()
      (binary_3x3): Conv2d(256, 256, kernel_size=(3, 3), stride=(1, 1), padding=(1, 1), bias=False)
      (bn1): BatchNorm2d(256, eps=1e-05, momentum=0.1, affine=True, track_running_stats=True)
      (move12): LearnableBias()
      (prelu1): PReLU(num_parameters=256)
      (move13): LearnableBias()
      (move21): LearnableBias()
      (binary_pw): Conv2d(256, 256, kernel_size=(1, 1), stride=(1, 1), bias=False)
      (bn2): BatchNorm2d(256, eps=1e-05, momentum=0.1, affine=True, track_running_stats=True)
      (move22): LearnableBias()
      (prelu2): PReLU(num_parameters=256)
      (move23): LearnableBias()
      (binary_activation): BinaryActivation()
    )
    (6): BasicBlock(
      (move11): LearnableBias()
      (binary_3x3): Conv2d(256, 256, kernel_size=(3, 3), stride=(2, 2), padding=(1, 1), bias=False)
      (bn1): BatchNorm2d(256, eps=1e-05, momentum=0.1, affine=True, track_running_stats=True)
      (move12): LearnableBias()
      (prelu1): PReLU(num_parameters=256)
      (move13): LearnableBias()
      (move21): LearnableBias()
      (binary_pw_down1): Conv2d(256, 256, kernel_size=(1, 1), stride=(1, 1), bias=False)
      (binary_pw_down2): Conv2d(256, 256, kernel_size=(1, 1), stride=(1, 1), bias=False)
      (bn2_1): BatchNorm2d(256, eps=1e-05, momentum=0.1, affine=True, track_running_stats=True)
      (bn2_2): BatchNorm2d(256, eps=1e-05, momentum=0.1, affine=True, track_running_stats=True)
      (move22): LearnableBias()
      (prelu2): PReLU(num_parameters=512)
      (move23): LearnableBias()
      (binary_activation): BinaryActivation()
      (pooling): AvgPool2d(kernel_size=2, stride=2, padding=0)
    )
    (7): BasicBlock(
      (move11): LearnableBias()
      (binary_3x3): Conv2d(512, 512, kernel_size=(3, 3), stride=(1, 1), padding=(1, 1), bias=False)
      (bn1): BatchNorm2d(512, eps=1e-05, momentum=0.1, affine=True, track_running_stats=True)
      (move12): LearnableBias()
      (prelu1): PReLU(num_parameters=512)
      (move13): LearnableBias()
      (move21): LearnableBias()
      (binary_pw): Conv2d(512, 512, kernel_size=(1, 1), stride=(1, 1), bias=False)
      (bn2): BatchNorm2d(512, eps=1e-05, momentum=0.1, affine=True, track_running_stats=True)
      (move22): LearnableBias()
      (prelu2): PReLU(num_parameters=512)
      (move23): LearnableBias()
      (binary_activation): BinaryActivation()
    )
    (8): BasicBlock(
      (move11): LearnableBias()
      (binary_3x3): Conv2d(512, 512, kernel_size=(3, 3), stride=(1, 1), padding=(1, 1), bias=False)
      (bn1): BatchNorm2d(512, eps=1e-05, momentum=0.1, affine=True, track_running_stats=True)
      (move12): LearnableBias()
      (prelu1): PReLU(num_parameters=512)
      (move13): LearnableBias()
      (move21): LearnableBias()
      (binary_pw): Conv2d(512, 512, kernel_size=(1, 1), stride=(1, 1), bias=False)
      (bn2): BatchNorm2d(512, eps=1e-05, momentum=0.1, affine=True, track_running_stats=True)
      (move22): LearnableBias()
      (prelu2): PReLU(num_parameters=512)
      (move23): LearnableBias()
      (binary_activation): BinaryActivation()
    )
    (9): BasicBlock(
      (move11): LearnableBias()
      (binary_3x3): Conv2d(512, 512, kernel_size=(3, 3), stride=(1, 1), padding=(1, 1), bias=False)
      (bn1): BatchNorm2d(512, eps=1e-05, momentum=0.1, affine=True, track_running_stats=True)
      (move12): LearnableBias()
      (prelu1): PReLU(num_parameters=512)
      (move13): LearnableBias()
      (move21): LearnableBias()
      (binary_pw): Conv2d(512, 512, kernel_size=(1, 1), stride=(1, 1), bias=False)
      (bn2): BatchNorm2d(512, eps=1e-05, momentum=0.1, affine=True, track_running_stats=True)
      (move22): LearnableBias()
      (prelu2): PReLU(num_parameters=512)
      (move23): LearnableBias()
      (binary_activation): BinaryActivation()
    )
    (10): BasicBlock(
      (move11): LearnableBias()
      (binary_3x3): Conv2d(512, 512, kernel_size=(3, 3), stride=(1, 1), padding=(1, 1), bias=False)
      (bn1): BatchNorm2d(512, eps=1e-05, momentum=0.1, affine=True, track_running_stats=True)
      (move12): LearnableBias()
      (prelu1): PReLU(num_parameters=512)
      (move13): LearnableBias()
      (move21): LearnableBias()
      (binary_pw): Conv2d(512, 512, kernel_size=(1, 1), stride=(1, 1), bias=False)
      (bn2): BatchNorm2d(512, eps=1e-05, momentum=0.1, affine=True, track_running_stats=True)
      (move22): LearnableBias()
      (prelu2): PReLU(num_parameters=512)
      (move23): LearnableBias()
      (binary_activation): BinaryActivation()
    )
    (11): BasicBlock(
      (move11): LearnableBias()
      (binary_3x3): Conv2d(512, 512, kernel_size=(3, 3), stride=(1, 1), padding=(1, 1), bias=False)
      (bn1): BatchNorm2d(512, eps=1e-05, momentum=0.1, affine=True, track_running_stats=True)
      (move12): LearnableBias()
      (prelu1): PReLU(num_parameters=512)
      (move13): LearnableBias()
      (move21): LearnableBias()
      (binary_pw): Conv2d(512, 512, kernel_size=(1, 1), stride=(1, 1), bias=False)
      (bn2): BatchNorm2d(512, eps=1e-05, momentum=0.1, affine=True, track_running_stats=True)
      (move22): LearnableBias()
      (prelu2): PReLU(num_parameters=512)
      (move23): LearnableBias()
      (binary_activation): BinaryActivation()
    )
    (12): BasicBlock(
      (move11): LearnableBias()
      (binary_3x3): Conv2d(512, 512, kernel_size=(3, 3), stride=(2, 2), padding=(1, 1), bias=False)
      (bn1): BatchNorm2d(512, eps=1e-05, momentum=0.1, affine=True, track_running_stats=True)
      (move12): LearnableBias()
      (prelu1): PReLU(num_parameters=512)
      (move13): LearnableBias()
      (move21): LearnableBias()
      (binary_pw_down1): Conv2d(512, 512, kernel_size=(1, 1), stride=(1, 1), bias=False)
      (binary_pw_down2): Conv2d(512, 512, kernel_size=(1, 1), stride=(1, 1), bias=False)
      (bn2_1): BatchNorm2d(512, eps=1e-05, momentum=0.1, affine=True, track_running_stats=True)
      (bn2_2): BatchNorm2d(512, eps=1e-05, momentum=0.1, affine=True, track_running_stats=True)
      (move22): LearnableBias()
      (prelu2): PReLU(num_parameters=1024)
      (move23): LearnableBias()
      (binary_activation): BinaryActivation()
      (pooling): AvgPool2d(kernel_size=2, stride=2, padding=0)
    )
    (13): BasicBlock(
      (move11): LearnableBias()
      (binary_3x3): Conv2d(1024, 1024, kernel_size=(3, 3), stride=(1, 1), padding=(1, 1), bias=False)
      (bn1): BatchNorm2d(1024, eps=1e-05, momentum=0.1, affine=True, track_running_stats=True)
      (move12): LearnableBias()
      (prelu1): PReLU(num_parameters=1024)
      (move13): LearnableBias()
      (move21): LearnableBias()
      (binary_pw): Conv2d(1024, 1024, kernel_size=(1, 1), stride=(1, 1), bias=False)
      (bn2): BatchNorm2d(1024, eps=1e-05, momentum=0.1, affine=True, track_running_stats=True)
      (move22): LearnableBias()
      (prelu2): PReLU(num_parameters=1024)
      (move23): LearnableBias()
      (binary_activation): BinaryActivation()
    )
  )
  (pool1): AdaptiveAvgPool2d(output_size=1)
  (fc): Linear(in_features=1024, out_features=10, bias=True)
)
